model.pth (torch, 5279 bytes, 13 tensors)

fc1.weight f4 [5, 10]
0	0x3da2ab85	0.07942871
1	0x3e43a133	0.19104461
2	0x3e356a0f	0.1771624
3	0xbd13cba8	-0.036082894
4	0xbdd69def	-0.10479342
5	0xbd7b38cc	-0.061333463
6	0xbde339f3	-0.11095037
7	0xbf03a215	-0.5141919
8	0x3df014b8	0.11722702
9	0x3f2ab064	0.666754
10	0xbdaa77ae	-0.08323608
11	0x3db1e5df	0.086864226
12	0xbea8acf1	-0.32944444
13	0xbec1a12a	-0.3781827
14	0xbe0a535c	-0.13508362
15	0x3dfcf4a5	0.1235135
16	0xbc7f64a6	-0.015587961
17	0xbe4d5201	-0.20050813
18	0xbd521de7	-0.05129805
19	0x3dd7b2e9	0.10532171
20	0xbeb81410	-0.35952806
21	0xbf5361f7	-0.8257136
22	0x3c9e9eae	0.019362774
23	0xbb0c8665	-0.002144241
24	0xbe09c212	-0.13452938
25	0x3e48e355	0.1961797
26	0xbd749b58	-0.05971846
27	0x3f0dbdcf	0.5536775
28	0xbe98377d	-0.29729834
29	0xbe534aa4	-0.20633942
30	0xbf2c2918	-0.67250204
31	0xbd27d6ae	-0.04097622
32	0xbd142217	-0.036165323
33	0x3b8047a3	0.0039147898
34	0xbdc658dc	-0.09684917
35	0x3cfb1c10	0.03065303
36	0x3ee587db	0.44830212
37	0x3e159fd1	0.14611746
38	0x3e84b3a8	0.25918317
39	0x3ed813cd	0.42202607
40	0xbea7c1e3	-0.3276511
41	0x3e11d5fb	0.14241783
42	0x3ead048f	0.3379254
43	0xbdc9bd82	-0.09850599
44	0xbcf9211a	-0.030411292
45	0xbe98420e	-0.29737896
46	0xbd2771ce	-0.040880017
47	0xbf3483ca	-0.70513594
48	0x3b3c6f0f	0.002875272
49	0xbf41028f	-0.7539453

fc1.bias f4 [5]
0	0x3e86d26c	0.26332414
1	0xbe83464d	-0.25639573
2	0xbf164dd0	-0.5871248
3	0x3eab5c4e	0.3346886
4	0x3f0b29da	0.54360735

fc2.weight f4 [5, 5]
0	0x3f32dd37	0.698688
1	0xbe59dbb6	-0.2127522
2	0x3eba1955	0.36347452
3	0x3f2b6b78	0.6696086
4	0xbf2ad307	-0.6672825
5	0x3e96d981	0.29462817
6	0xbe03cf29	-0.12871994
7	0x3f3df1e2	0.7419721
8	0x3ea63516	0.32462376
9	0xbf02d25c	-0.5110223
10	0x3e23cddb	0.15996496
11	0x3d7000c0	0.058594465
12	0x3e9f9b19	0.31173018
13	0xbeae7af4	-0.3407818
14	0xbe0aa195	-0.13538201
15	0xbd410048	-0.04711941
16	0x3ea93ffe	0.33056635
17	0x3ca2e770	0.019885749
18	0xbee4d20c	-0.44691503
19	0xbee2aedb	-0.4427403
20	0x3f452fc6	0.7702602
21	0x3ebf78e7	0.3739693
22	0x3e936565	0.28788295
23	0x3e8483e1	0.25881866
24	0xbf3d5df4	-0.73971486

fc2.bias f4 [5]
0	0x3d420743	0.047370207
1	0x3de8889f	0.113541834
2	0xbe86b52d	-0.263101
3	0xbe208444	-0.15675455
4	0x3e99fa8a	0.3007396

fc3.weight f4 [5, 5]
0	0xbea4b066	-0.3216583
1	0x3e0177c4	0.12643343
2	0xbd990480	-0.074715614
3	0x3eb206c4	0.34770787
4	0x3bc38bc0	0.005967587
5	0xbed328a4	-0.41241944
6	0xbcbdd3d0	-0.02317229
7	0x3e38b380	0.18037224
8	0xbedfbd74	-0.4369923
9	0xbc845960	-0.016155899
10	0x3d7a1c30	0.061062038
11	0x3e5bbe7c	0.21459383
12	0xbe87ef02	-0.26549536
13	0x3e90cf00	0.28282928
14	0x3dcb9260	0.09940028
15	0x3e2baa18	0.16764104
16	0x3de7f428	0.11325866
17	0x3dd39068	0.10330278
18	0xbc729f80	-0.014808536
19	0xbed6acd6	-0.41928738
20	0x3e31daa0	0.17368555
21	0x3ec1fbea	0.37887508
22	0xbeb38563	-0.35062703
23	0xbe8821f8	-0.26588416
24	0xbeb7c276	-0.3589055

fc3.bias f4 [5]
0	0xbea62b3c	-0.3245486
1	0xbecb1a5a	-0.39668542
2	0xbd63ab90	-0.055583537
3	0xbd86feb0	-0.065915465
4	0x3e2b4790	0.16726518

fc4.weight f4 [5, 5]
0	0xbca7b6f0	-0.020472974
1	0x3e308fc4	0.17242342
2	0x3e40895c	0.18802398
3	0x3e6cc598	0.23122251
4	0x3ed706e8	0.41997457
5	0xbdf6383c	-0.120224446
6	0xbe40a672	-0.18813494
7	0x3e0a4dc0	0.13506222
8	0xbeb925b6	-0.36161584
9	0x3e24b66c	0.16085213
10	0xbda347e0	-0.079726934
11	0x3d86f250	0.06589186
12	0xbeb53b46	-0.35396785
13	0xbeb9de26	-0.36302298
14	0xbec3dff1	-0.3825679
15	0x3ec52352	0.3850351
16	0xbe811430	-0.25210714
17	0x3e26c884	0.16287428
18	0x3e837988	0.25678658
19	0xbb19cb00	-0.0023466945
20	0xbe3c5b36	-0.18394169
21	0x3de81090	0.11331284
22	0xbe506fce	-0.2035515
23	0x3c8c0440	0.01709187
24	0xbd875e4c	-0.066097826

fc4.bias f4 [5]
0	0xbd0fa618	-0.03507051
1	0xbed73549	-0.4203284
2	0x3ee30d86	0.44346255
3	0x3eab2d48	0.33432984
4	0xbe8173ba	-0.25283605

fc5.weight f4 [5, 5]
0	0xbe68c785	-0.2273236
1	0x3b756a80	0.0037447512
2	0xbe5fac0a	-0.21842971
3	0xbec9b963	-0.3939925
4	0xbe40722e	-0.18793556
5	0xbe9c07f9	-0.30474833
6	0x3e763f5c	0.24047607
7	0x3d331c68	0.043728262
8	0xbcf030f0	-0.02932021
9	0xbe84041a	-0.2578438
10	0xbe50df66	-0.2039772
11	0xbe9d07e8	-0.30670094
12	0x3e2f04fc	0.17091745
13	0x3e972cd8	0.295264
14	0xbda382a8	-0.07983905
15	0x3eb83816	0.3598029
16	0xbe99366a	-0.29924327
17	0x3e49b6e8	0.1969868
18	0xbd56fb38	-0.052485675
19	0x3e953242	0.29139906
20	0x3e8abf0c	0.27098882
21	0xbe2cbbf2	-0.1686857
22	0xbe02b64c	-0.12764853
23	0xbdb721fc	-0.08942029
24	0x3ec80206	0.39064044

fc5.bias f4 [5]
0	0xbedcbf02	-0.43114477
1	0xbda2e600	-0.07954025
2	0x3e8454a2	0.2584582
3	0xbece32a4	-0.4027301
4	0x3e5f7d10	0.21825051

fc6.weight f4 [5, 5]
0	0x3e245f70	0.16052032
1	0xbdbe3958	-0.09288281
2	0xbe9ca8e1	-0.30597594
3	0xbecc62cc	-0.39919126
4	0xbde74a0c	-0.1129342
5	0x3cd24ff0	0.025672883
6	0x3ed64696	0.41850728
7	0x3ebcd1de	0.36878866
8	0xbe500caa	-0.20317331
9	0x3ebc208c	0.3674358
10	0x3e99cc0e	0.30038494
11	0x3d54b7e8	0.0519332
12	0xbde85a34	-0.1134533
13	0x3e840820	0.2578745
14	0xbe5be234	-0.21473008
15	0xbeaa10c1	-0.33215907
16	0x3e0209a4	0.1269899
17	0x3e70cf0c	0.23516482
18	0xbeb70c43	-0.35751542
19	0x3e016118	0.12634695
20	0xbe9bbf60	-0.30419445
21	0x3e64a3f4	0.22328168
22	0x3e2c586c	0.16830605
23	0xbdc4a888	-0.09602457
24	0x3e7ad39c	0.24494785

fc6.bias f4 [5]
0	0x3e7723b8	0.2413472
1	0x3ed6a8aa	0.41925555
2	0x3d19c6e0	0.037543178
3	0xbdaa9018	-0.08328265
4	0xbee21cda	-0.44162637

fc7.weight f4 [1, 5]
0	0x3f17bb71	0.5927039
1	0x3f0aa44c	0.5415695
2	0xbc3b34fa	-0.011426205
3	0xbe304f50	-0.17217755
4	0x3eab9fd4	0.33520377
